…
                                            <span class="c1"># softmax to obtain the probabilities of each dog breed</span>
<span class="c1">### TODO: Define your architecture.</span>

<span class="n">model</span><span class="o">.</span><span class="n">summary</span><span class="p">()</span>
</pre>

</div>

</div>

</div>

</div>

<div class="output_wrapper">

<div class="output">

<div class="output_area">

<div class="output_subarea output_stream output_stdout output_text">

<pre>_________________________________________________________________
Layer (type)                 Output Shape              Param #   
=================================================================
conv2d_95 (Conv2D)           (None, 223, 223, 16)      208       
_________________________________________________________________
max_pooling2d_6 (MaxPooling2 (None, 111, 111, 16)      0         
_________________________________________________________________
conv2d_96 (Conv2D)           (None, 110, 110, 32)      2080      
_________________________________________________________________
max_pooling2d_7 (MaxPooling2 (None, 55, 55, 32)        0         
_________________________________________________________________
conv2d_97 (Conv2D)           (None, 55, 55, 64)        8256      
_________________________________________________________________
global_average_pooling2d_1 ( (None, 64)                0         
_________________________________________________________________
dropout_1 (Dropout)          (None, 64)                0         
_________________________________________________________________
dense_1 (Dense)              (None, 133)               8645      
=================================================================
Total params: 19,189
Trainable params: 19,189
Non-trainable params: 0
_________________________________________________________________
</pre>

</div>

</div>

</div>

</div>

</div>

<div class="cell border-box-sizing text_cell rendered">

<div class="inner_cell">

<div class="text_cell_render border-box-sizing rendered_html">
…
